=> loading dataset <=
removed 98574/106574 non-existing/too short items
=> dataset loaded <=
Model(
  (conv): Sequential(
    (0): Conv1d(1, 128, kernel_size=(2,), stride=(2,), padding=(1,))
    (1): BatchNorm1d(128, eps=1e-05, momentum=0.1, affine=True, track_running_stats=True)
    (2): ReLU()
    (3): Conv1d(128, 128, kernel_size=(2,), stride=(1,), padding=(1,))
    (4): BatchNorm1d(128, eps=1e-05, momentum=0.1, affine=True, track_running_stats=True)
    (5): ReLU()
    (6): MaxPool1d(kernel_size=2, stride=2, padding=0, dilation=1, ceil_mode=False)
    (7): Conv1d(128, 128, kernel_size=(2,), stride=(1,), padding=(1,))
    (8): BatchNorm1d(128, eps=1e-05, momentum=0.1, affine=True, track_running_stats=True)
    (9): ReLU()
    (10): MaxPool1d(kernel_size=2, stride=2, padding=0, dilation=1, ceil_mode=False)
    (11): Conv1d(128, 128, kernel_size=(2,), stride=(1,), padding=(1,))
    (12): BatchNorm1d(128, eps=1e-05, momentum=0.1, affine=True, track_running_stats=True)
    (13): ReLU()
    (14): MaxPool1d(kernel_size=2, stride=2, padding=0, dilation=1, ceil_mode=False)
    (15): Conv1d(128, 128, kernel_size=(2,), stride=(1,), padding=(1,))
    (16): BatchNorm1d(128, eps=1e-05, momentum=0.1, affine=True, track_running_stats=True)
    (17): ReLU()
    (18): MaxPool1d(kernel_size=2, stride=2, padding=0, dilation=1, ceil_mode=False)
    (19): Conv1d(128, 128, kernel_size=(2,), stride=(1,), padding=(1,))
    (20): BatchNorm1d(128, eps=1e-05, momentum=0.1, affine=True, track_running_stats=True)
    (21): ReLU()
    (22): MaxPool1d(kernel_size=2, stride=2, padding=0, dilation=1, ceil_mode=False)
    (23): Conv1d(128, 128, kernel_size=(2,), stride=(1,), padding=(1,))
    (24): BatchNorm1d(128, eps=1e-05, momentum=0.1, affine=True, track_running_stats=True)
    (25): ReLU()
    (26): MaxPool1d(kernel_size=2, stride=2, padding=0, dilation=1, ceil_mode=False)
    (27): Conv1d(128, 256, kernel_size=(2,), stride=(1,), padding=(1,))
    (28): BatchNorm1d(256, eps=1e-05, momentum=0.1, affine=True, track_running_stats=True)
    (29): ReLU()
    (30): MaxPool1d(kernel_size=2, stride=2, padding=0, dilation=1, ceil_mode=False)
    (31): Conv1d(256, 256, kernel_size=(2,), stride=(1,), padding=(1,))
    (32): BatchNorm1d(256, eps=1e-05, momentum=0.1, affine=True, track_running_stats=True)
    (33): ReLU()
    (34): MaxPool1d(kernel_size=2, stride=2, padding=0, dilation=1, ceil_mode=False)
    (35): Conv1d(256, 256, kernel_size=(2,), stride=(1,), padding=(1,))
    (36): BatchNorm1d(256, eps=1e-05, momentum=0.1, affine=True, track_running_stats=True)
    (37): ReLU()
    (38): MaxPool1d(kernel_size=2, stride=2, padding=0, dilation=1, ceil_mode=False)
    (39): Conv1d(256, 256, kernel_size=(2,), stride=(1,), padding=(1,))
    (40): BatchNorm1d(256, eps=1e-05, momentum=0.1, affine=True, track_running_stats=True)
    (41): ReLU()
    (42): MaxPool1d(kernel_size=2, stride=2, padding=0, dilation=1, ceil_mode=False)
    (43): Conv1d(256, 256, kernel_size=(2,), stride=(1,), padding=(1,))
    (44): BatchNorm1d(256, eps=1e-05, momentum=0.1, affine=True, track_running_stats=True)
    (45): ReLU()
    (46): MaxPool1d(kernel_size=2, stride=2, padding=0, dilation=1, ceil_mode=False)
    (47): Conv1d(256, 256, kernel_size=(2,), stride=(1,), padding=(1,))
    (48): BatchNorm1d(256, eps=1e-05, momentum=0.1, affine=True, track_running_stats=True)
    (49): ReLU()
    (50): MaxPool1d(kernel_size=2, stride=2, padding=0, dilation=1, ceil_mode=False)
    (51): Conv1d(256, 256, kernel_size=(2,), stride=(1,), padding=(1,))
    (52): BatchNorm1d(256, eps=1e-05, momentum=0.1, affine=True, track_running_stats=True)
    (53): ReLU()
    (54): MaxPool1d(kernel_size=2, stride=2, padding=0, dilation=1, ceil_mode=False)
    (55): Conv1d(256, 256, kernel_size=(2,), stride=(1,), padding=(1,))
    (56): BatchNorm1d(256, eps=1e-05, momentum=0.1, affine=True, track_running_stats=True)
    (57): ReLU()
    (58): MaxPool1d(kernel_size=2, stride=2, padding=0, dilation=1, ceil_mode=False)
    (59): Conv1d(256, 512, kernel_size=(2,), stride=(1,), padding=(1,))
    (60): BatchNorm1d(512, eps=1e-05, momentum=0.1, affine=True, track_running_stats=True)
    (61): ReLU()
    (62): MaxPool1d(kernel_size=2, stride=2, padding=0, dilation=1, ceil_mode=False)
    (63): Conv1d(512, 512, kernel_size=(1,), stride=(1,))
    (64): Dropout(p=0.5)
  )
  (fc): Sequential(
    (0): Linear(in_features=512, out_features=8, bias=True)
    (1): Sigmoid()
  )
)
=> begin training <=
training epoch 0
train precision: 24.44%
validation precision: 30.25%
training epoch 1
train precision: 28.89%
validation precision: 32.06%
training epoch 2
train precision: 29.81%
validation precision: 33.00%
training epoch 3
train precision: 30.52%
validation precision: 33.81%
training epoch 4
train precision: 31.13%
…
