=> loading dataset <=
removed 98574/106574 non-existing/too short items
=> dataset loaded <=
Model(
  (conv): Sequential(
    (0): Conv1d(1, 128, kernel_size=(81,), stride=(81,), padding=(40,))
    (1): BatchNorm1d(128, eps=1e-05, momentum=0.1, affine=True, track_running_stats=True)
    (2): ReLU()
    (3): Conv1d(128, 128, kernel_size=(3,), stride=(1,), padding=(1,))
    (4): BatchNorm1d(128, eps=1e-05, momentum=0.1, affine=True, track_running_stats=True)
    (5): ReLU()
    (6): MaxPool1d(kernel_size=3, stride=3, padding=0, dilation=1, ceil_mode=False)
    (7): Conv1d(128, 256, kernel_size=(3,), stride=(1,), padding=(1,))
    (8): BatchNorm1d(256, eps=1e-05, momentum=0.1, affine=True, track_running_stats=True)
    (9): ReLU()
    (10): MaxPool1d(kernel_size=3, stride=3, padding=0, dilation=1, ceil_mode=False)
    (11): Conv1d(256, 256, kernel_size=(3,), stride=(1,), padding=(1,))
    (12): BatchNorm1d(256, eps=1e-05, momentum=0.1, affine=True, track_running_stats=True)
    (13): ReLU()
    (14): MaxPool1d(kernel_size=3, stride=3, padding=0, dilation=1, ceil_mode=False)
    (15): Conv1d(256, 256, kernel_size=(3,), stride=(1,), padding=(1,))
    (16): BatchNorm1d(256, eps=1e-05, momentum=0.1, affine=True, track_running_stats=True)
    (17): ReLU()
    (18): MaxPool1d(kernel_size=3, stride=3, padding=0, dilation=1, ceil_mode=False)
    (19): Conv1d(256, 256, kernel_size=(3,), stride=(1,), padding=(1,))
    (20): BatchNorm1d(256, eps=1e-05, momentum=0.1, affine=True, track_running_stats=True)
    (21): ReLU()
    (22): MaxPool1d(kernel_size=3, stride=3, padding=0, dilation=1, ceil_mode=False)
    (23): Conv1d(256, 512, kernel_size=(3,), stride=(1,), padding=(1,))
    (24): BatchNorm1d(512, eps=1e-05, momentum=0.1, affine=True, track_running_stats=True)
    (25): ReLU()
    (26): MaxPool1d(kernel_size=3, stride=3, padding=0, dilation=1, ceil_mode=False)
    (27): Conv1d(512, 512, kernel_size=(1,), stride=(1,))
    (28): Dropout(p=0.5)
  )
  (fc): Sequential(
    (0): Linear(in_features=512, out_features=8, bias=True)
    (1): Sigmoid()
  )
)
=> begin training <=
training epoch 0
train precision: 25.11%
validation precision: 30.88%
training epoch 1
train precision: 30.50%
validation precision: 33.25%
training epoch 2
train precision: 32.22%
validation precision: 32.38%
training epoch 3
train precision: 33.08%
validation precision: 34.69%
training epoch 4
train precision: 33.53%
…
