Model(
  (conv): Sequential(
    (0): Conv1d(10, 128, kernel_size=(3,), stride=(3,), padding=(1,))
    (1): BatchNorm1d(128, eps=1e-05, momentum=0.1, affine=True, track_running_stats=True)
    (2): ReLU()
    (3): Conv1d(128, 128, kernel_size=(3,), stride=(1,), padding=(1,))
    (4): BatchNorm1d(128, eps=1e-05, momentum=0.1, affine=True, track_running_stats=True)
    (5): ReLU()
    (6): MaxPool1d(kernel_size=3, stride=3, padding=0, dilation=1, ceil_mode=False)
    (7): Conv1d(128, 128, kernel_size=(3,), stride=(1,), padding=(1,))
    (8): BatchNorm1d(128, eps=1e-05, momentum=0.1, affine=True, track_running_stats=True)
    (9): ReLU()
    (10): MaxPool1d(kernel_size=3, stride=3, padding=0, dilation=1, ceil_mode=False)
    (11): Conv1d(128, 256, kernel_size=(3,), stride=(1,), padding=(1,))
    (12): BatchNorm1d(256, eps=1e-05, momentum=0.1, affine=True, track_running_stats=True)
    (13): ReLU()
    (14): MaxPool1d(kernel_size=3, stride=3, padding=0, dilation=1, ceil_mode=False)
    (15): Conv1d(256, 256, kernel_size=(3,), stride=(1,), padding=(1,))
    (16): BatchNorm1d(256, eps=1e-05, momentum=0.1, affine=True, track_running_stats=True)
    (17): ReLU()
    (18): MaxPool1d(kernel_size=3, stride=3, padding=0, dilation=1, ceil_mode=False)
    (19): Conv1d(256, 256, kernel_size=(3,), stride=(1,), padding=(1,))
    (20): BatchNorm1d(256, eps=1e-05, momentum=0.1, affine=True, track_running_stats=True)
    (21): ReLU()
    (22): MaxPool1d(kernel_size=3, stride=3, padding=0, dilation=1, ceil_mode=False)
    (23): Conv1d(256, 256, kernel_size=(3,), stride=(1,), padding=(1,))
    (24): BatchNorm1d(256, eps=1e-05, momentum=0.1, affine=True, track_running_stats=True)
    (25): ReLU()
    (26): MaxPool1d(kernel_size=3, stride=3, padding=0, dilation=1, ceil_mode=False)
    (27): Conv1d(256, 256, kernel_size=(3,), stride=(1,), padding=(1,))
    (28): BatchNorm1d(256, eps=1e-05, momentum=0.1, affine=True, track_running_stats=True)
    (29): ReLU()
    (30): MaxPool1d(kernel_size=3, stride=3, padding=0, dilation=1, ceil_mode=False)
    (31): Conv1d(256, 256, kernel_size=(3,), stride=(1,), padding=(1,))
    (32): BatchNorm1d(256, eps=1e-05, momentum=0.1, affine=True, track_running_stats=True)
    (33): ReLU()
    (34): MaxPool1d(kernel_size=3, stride=3, padding=0, dilation=1, ceil_mode=False)
    (35): Conv1d(256, 512, kernel_size=(3,), stride=(1,), padding=(1,))
    (36): BatchNorm1d(512, eps=1e-05, momentum=0.1, affine=True, track_running_stats=True)
    (37): ReLU()
    (38): MaxPool1d(kernel_size=3, stride=3, padding=0, dilation=1, ceil_mode=False)
    (39): Conv1d(512, 512, kernel_size=(1,), stride=(1,))
    (40): Dropout(p=0.5)
  )
  (fc): Sequential(
    (0): Linear(in_features=512, out_features=8, bias=True)
    (1): Sigmoid()
  )
)



(iaml) twuensche@Tubuntu:~/git/iaml/sample_dcnn$ python sample_dcnn.py 
=> loading dataset <=
removed 98574/106574 non-existing/too short items
build class set: 100%|█████████████████| 8000/8000 [00:00<00:00, 1586572.98it/s]
build dataset: 100%|████████████████████| 8000/8000 [00:00<00:00, 718525.71it/s]
=> dataset loaded <=
=> begin training <=
…
